…
=========================================================================================================================================================================================
Layer (type:depth-idx)                                       Input Shape               Output Shape              Param #                   Mult-Adds                 Param %
=========================================================================================================================================================================================
DeepSeekTransfomerModel                                      [8, 64]                   [8, 64, 49152]            --                        --                         -3.88%
├─Embedding: 1-1                                             [8, 64]                   [8, 64, 768]              37,748,736                301,989,888                 3.88%
├─ModuleList: 1-2                                            --                        --                        --                        --                             --
│    └─DeepSeekBlock: 2-1                                    [8, 64, 768]              [8, 64, 768]              --                        --                             --
│    │    └─RMSNorm: 3-1                                     [8, 64, 768]              [8, 64, 768]              768                       6,144                       0.00%
│    │    └─MultiHeadLatentAttention: 3-2                    [8, 64, 768]              [8, 64, 768]              1,551,744                 12,413,952                  0.16%
│    │    └─RMSNorm: 3-3                                     [8, 64, 768]              [8, 64, 768]              768                       6,144                       0.00%
│    │    └─DeepSeekFFN: 3-4                                 [8, 64, 768]              [8, 64, 768]              28,316,942                3,652,233,272               2.91%
│    └─DeepSeekBlock: 2-2                                    [8, 64, 768]              [8, 64, 768]              --                        --                             --
│    │    └─RMSNorm: 3-5                                     [8, 64, 768]              [8, 64, 768]              768                       6,144                       0.00%
│    │    └─MultiHeadLatentAttention: 3-6                    [8, 64, 768]              [8, 64, 768]              1,551,744                 12,413,952                  0.16%
│    │    └─RMSNorm: 3-7                                     [8, 64, 768]              [8, 64, 768]              768                       6,144                       0.00%
│    │    └─DeepSeekFFN: 3-8                                 [8, 64, 768]              [8, 64, 768]              28,316,942                3,652,233,272               2.91%
│    └─DeepSeekBlock: 2-3                                    [8, 64, 768]              [8, 64, 768]              --                        --                             --
│    │    └─RMSNorm: 3-9                                     [8, 64, 768]              [8, 64, 768]              768                       6,144                       0.00%
│    │    └─MultiHeadLatentAttention: 3-10                   [8, 64, 768]              [8, 64, 768]              1,551,744                 12,413,952                  0.16%
│    │    └─RMSNorm: 3-11                                    [8, 64, 768]              [8, 64, 768]              768                       6,144                       0.00%
│    │    └─DeepSeekFFN: 3-12                                [8, 64, 768]              [8, 64, 768]              28,316,942                3,652,233,272               2.91%
│    └─DeepSeekBlock: 2-4                                    [8, 64, 768]              [8, 64, 768]              --                        --                             --
│    │    └─RMSNorm: 3-13                                    [8, 64, 768]              [8, 64, 768]              768                       6,144                       0.00%
│    │    └─MultiHeadLatentAttention: 3-14                   [8, 64, 768]              [8, 64, 768]              1,551,744                 12,413,952                  0.16%
│    │    └─RMSNorm: 3-15                                    [8, 64, 768]              [8, 64, 768]              768                       6,144                       0.00%
│    │    └─DeepSeekFFN: 3-16                                [8, 64, 768]              [8, 64, 768]              28,316,942                3,652,233,272               2.91%
│    └─DeepSeekBlock: 2-5                                    [8, 64, 768]              [8, 64, 768]              --                        --                             --
│    │    └─RMSNorm: 3-17                                    [8, 64, 768]              [8, 64, 768]              768                       6,144                       0.00%
│    │    └─MultiHeadLatentAttention: 3-18                   [8, 64, 768]              [8, 64, 768]              1,551,744                 12,413,952                  0.16%
│    │    └─RMSNorm: 3-19                                    [8, 64, 768]              [8, 64, 768]              768                       6,144                       0.00%
│    │    └─DeepSeekFFN: 3-20                                [8, 64, 768]              [8, 64, 768]              28,316,942                3,652,233,272               2.91%
│    └─DeepSeekBlock: 2-6                                    [8, 64, 768]              [8, 64, 768]              --                        --                             --
│    │    └─RMSNorm: 3-21                                    [8, 64, 768]              [8, 64, 768]              768                       6,144                       0.00%
│    │    └─MultiHeadLatentAttention: 3-22                   [8, 64, 768]              [8, 64, 768]              1,551,744                 12,413,952                  0.16%
│    │    └─RMSNorm: 3-23                                    [8, 64, 768]              [8, 64, 768]              768                       6,144                       0.00%
│    │    └─DeepSeekFFN: 3-24                                [8, 64, 768]              [8, 64, 768]              28,316,942                3,652,233,272               2.91%
│    └─DeepSeekBlock: 2-7                                    [8, 64, 768]              [8, 64, 768]              --                        --                             --
│    │    └─RMSNorm: 3-25                                    [8, 64, 768]              [8, 64, 768]              768                       6,144                       0.00%
│    │    └─MultiHeadLatentAttention: 3-26                   [8, 64, 768]              [8, 64, 768]              1,551,744                 12,413,952                  0.16%
│    │    └─RMSNorm: 3-27                                    [8, 64, 768]              [8, 64, 768]              768                       6,144                       0.00%
│    │    └─DeepSeekFFN: 3-28                                [8, 64, 768]              [8, 64, 768]              28,316,942                3,652,233,272               2.91%
│    └─DeepSeekBlock: 2-8                                    [8, 64, 768]              [8, 64, 768]              --                        --                             --
│    │    └─RMSNorm: 3-29                                    [8, 64, 768]              [8, 64, 768]              768                       6,144                       0.00%
│    │    └─MultiHeadLatentAttention: 3-30                   [8, 64, 768]              [8, 64, 768]              1,551,744                 12,413,952                  0.16%
│    │    └─RMSNorm: 3-31                                    [8, 64, 768]              [8, 64, 768]              768                       6,144                       0.00%
│    │    └─DeepSeekFFN: 3-32                                [8, 64, 768]              [8, 64, 768]              28,316,942                3,652,233,272               2.91%
│    └─DeepSeekBlock: 2-9                                    [8, 64, 768]              [8, 64, 768]              --                        --                             --
│    │    └─RMSNorm: 3-33                                    [8, 64, 768]              [8, 64, 768]              768                       6,144                       0.00%
│    │    └─MultiHeadLatentAttention: 3-34                   [8, 64, 768]              [8, 64, 768]              1,551,744                 12,413,952                  0.16%
│    │    └─RMSNorm: 3-35                                    [8, 64, 768]              [8, 64, 768]              768                       6,144                       0.00%
│    │    └─DeepSeekFFN: 3-36                                [8, 64, 768]              [8, 64, 768]              28,316,942                3,652,233,272               2.91%
│    └─DeepSeekBlock: 2-10                                   [8, 64, 768]              [8, 64, 768]              --                        --                             --
│    │    └─RMSNorm: 3-37                                    [8, 64, 768]              [8, 64, 768]              768                       6,144                       0.00%
│    │    └─MultiHeadLatentAttention: 3-38                   [8, 64, 768]              [8, 64, 768]              1,551,744                 12,413,952                  0.16%
│    │    └─RMSNorm: 3-39                                    [8, 64, 768]              [8, 64, 768]              768                       6,144                       0.00%
│    │    └─DeepSeekFFN: 3-40                                [8, 64, 768]              [8, 64, 768]              28,316,942                3,652,233,272               2.91%
│    └─DeepSeekBlock: 2-11                                   [8, 64, 768]              [8, 64, 768]              --                        --                             --
│    │    └─RMSNorm: 3-41                                    [8, 64, 768]              [8, 64, 768]              768                       6,144                       0.00%
│    │    └─MultiHeadLatentAttention: 3-42                   [8, 64, 768]              [8, 64, 768]              1,551,744                 12,413,952                  0.16%
│    │    └─RMSNorm: 3-43                                    [8, 64, 768]              [8, 64, 768]              768                       6,144                       0.00%
│    │    └─DeepSeekFFN: 3-44                                [8, 64, 768]              [8, 64, 768]              28,316,942                3,652,233,272               2.91%
│    └─DeepSeekBlock: 2-12                                   [8, 64, 768]              [8, 64, 768]              --                        --                             --
│    │    └─RMSNorm: 3-45                                    [8, 64, 768]              [8, 64, 768]              768                       6,144                       0.00%
│    │    └─MultiHeadLatentAttention: 3-46                   [8, 64, 768]              [8, 64, 768]              1,551,744                 12,413,952                  0.16%
│    │    └─RMSNorm: 3-47                                    [8, 64, 768]              [8, 64, 768]              768                       6,144                       0.00%
│    │    └─DeepSeekFFN: 3-48                                [8, 64, 768]              [8, 64, 768]              28,316,942                3,652,233,272               2.91%
│    └─DeepSeekBlock: 2-13                                   [8, 64, 768]              [8, 64, 768]              --                        --                             --
│    │    └─RMSNorm: 3-49                                    [8, 64, 768]              [8, 64, 768]              768                       6,144                       0.00%
│    │    └─MultiHeadLatentAttention: 3-50                   [8, 64, 768]              [8, 64, 768]              1,551,744                 12,413,952                  0.16%
│    │    └─RMSNorm: 3-51                                    [8, 64, 768]              [8, 64, 768]              768                       6,144                       0.00%
│    │    └─DeepSeekFFN: 3-52                                [8, 64, 768]              [8, 64, 768]              28,316,942                3,652,233,272               2.91%
│    └─DeepSeekBlock: 2-14                                   [8, 64, 768]              [8, 64, 768]              --                        --                             --
│    │    └─RMSNorm: 3-53                                    [8, 64, 768]              [8, 64, 768]              768                       6,144                       0.00%
│    │    └─MultiHeadLatentAttention: 3-54                   [8, 64, 768]              [8, 64, 768]              1,551,744                 12,413,952                  0.16%
│    │    └─RMSNorm: 3-55                                    [8, 64, 768]              [8, 64, 768]              768                       6,144                       0.00%
│    │    └─DeepSeekFFN: 3-56                                [8, 64, 768]              [8, 64, 768]              28,316,942                3,652,233,272               2.91%
│    └─DeepSeekBlock: 2-15                                   [8, 64, 768]              [8, 64, 768]              --                        --                             --
│    │    └─RMSNorm: 3-57                                    [8, 64, 768]              [8, 64, 768]              768                       6,144                       0.00%
│    │    └─MultiHeadLatentAttention: 3-58                   [8, 64, 768]              [8, 64, 768]              1,551,744                 12,413,952                  0.16%
│    │    └─RMSNorm: 3-59                                    [8, 64, 768]              [8, 64, 768]              768                       6,144                       0.00%
│    │    └─DeepSeekFFN: 3-60                                [8, 64, 768]              [8, 64, 768]              28,316,942                3,652,233,272               2.91%
│    └─DeepSeekBlock: 2-16                                   [8, 64, 768]              [8, 64, 768]              --                        --                             --
│    │    └─RMSNorm: 3-61                                    [8, 64, 768]              [8, 64, 768]              768                       6,144                       0.00%
│    │    └─MultiHeadLatentAttention: 3-62                   [8, 64, 768]              [8, 64, 768]              1,551,744                 12,413,952                  0.16%
│    │    └─RMSNorm: 3-63                                    [8, 64, 768]              [8, 64, 768]              768                       6,144                       0.00%
│    │    └─DeepSeekFFN: 3-64                                [8, 64, 768]              [8, 64, 768]              28,316,942                3,652,233,272               2.91%
│    └─DeepSeekBlock: 2-17                                   [8, 64, 768]              [8, 64, 768]              --                        --                             --
│    │    └─RMSNorm: 3-65                                    [8, 64, 768]              [8, 64, 768]              768                       6,144                       0.00%
│    │    └─MultiHeadLatentAttention: 3-66                   [8, 64, 768]              [8, 64, 768]              1,551,744                 12,413,952                  0.16%
│    │    └─RMSNorm: 3-67                                    [8, 64, 768]              [8, 64, 768]              768                       6,144                       0.00%
│    │    └─DeepSeekFFN: 3-68                                [8, 64, 768]              [8, 64, 768]              28,316,942                3,652,233,272               2.91%
│    └─DeepSeekBlock: 2-18                                   [8, 64, 768]              [8, 64, 768]              --                        --                             --
│    │    └─RMSNorm: 3-69                                    [8, 64, 768]              [8, 64, 768]              768                       6,144                       0.00%
│    │    └─MultiHeadLatentAttention: 3-70                   [8, 64, 768]              [8, 64, 768]              1,551,744                 12,413,952                  0.16%
│    │    └─RMSNorm: 3-71                                    [8, 64, 768]              [8, 64, 768]              768                       6,144                       0.00%
│    │    └─DeepSeekFFN: 3-72                                [8, 64, 768]              [8, 64, 768]              28,316,942                3,652,233,272               2.91%
│    └─DeepSeekBlock: 2-19                                   [8, 64, 768]              [8, 64, 768]              --                        --                             --
│    │    └─RMSNorm: 3-73                                    [8, 64, 768]              [8, 64, 768]              768                       6,144                       0.00%
│    │    └─MultiHeadLatentAttention: 3-74                   [8, 64, 768]              [8, 64, 768]              1,551,744                 12,413,952                  0.16%
│    │    └─RMSNorm: 3-75                                    [8, 64, 768]              [8, 64, 768]              768                       6,144                       0.00%
│    │    └─DeepSeekFFN: 3-76                                [8, 64, 768]              [8, 64, 768]              28,316,942                3,652,233,272               2.91%
│    └─DeepSeekBlock: 2-20                                   [8, 64, 768]              [8, 64, 768]              --                        --                             --
│    │    └─RMSNorm: 3-77                                    [8, 64, 768]              [8, 64, 768]              768                       6,144                       0.00%
│    │    └─MultiHeadLatentAttention: 3-78                   [8, 64, 768]              [8, 64, 768]              1,551,744                 12,413,952                  0.16%
│    │    └─RMSNorm: 3-79                                    [8, 64, 768]              [8, 64, 768]              768                       6,144                       0.00%
│    │    └─DeepSeekFFN: 3-80                                [8, 64, 768]              [8, 64, 768]              28,316,942                3,652,233,272               2.91%
│    └─DeepSeekBlock: 2-21                                   [8, 64, 768]              [8, 64, 768]              --                        --                             --
│    │    └─RMSNorm: 3-81                                    [8, 64, 768]              [8, 64, 768]              768                       6,144                       0.00%
│    │    └─MultiHeadLatentAttention: 3-82                   [8, 64, 768]              [8, 64, 768]              1,551,744                 12,413,952                  0.16%
│    │    └─RMSNorm: 3-83                                    [8, 64, 768]              [8, 64, 768]              768                       6,144                       0.00%
│    │    └─DeepSeekFFN: 3-84                                [8, 64, 768]              [8, 64, 768]              28,316,942                3,652,233,272               2.91%
│    └─DeepSeekBlock: 2-22                                   [8, 64, 768]              [8, 64, 768]              --                        --                             --
│    │    └─RMSNorm: 3-85                                    [8, 64, 768]              [8, 64, 768]              768                       6,144                       0.00%
│    │    └─MultiHeadLatentAttention: 3-86                   [8, 64, 768]              [8, 64, 768]              1,551,744                 12,413,952                  0.16%
│    │    └─RMSNorm: 3-87                                    [8, 64, 768]              [8, 64, 768]              768                       6,144                       0.00%
│    │    └─DeepSeekFFN: 3-88                                [8, 64, 768]              [8, 64, 768]              28,316,942                3,652,233,272               2.91%
│    └─DeepSeekBlock: 2-23                                   [8, 64, 768]              [8, 64, 768]              --                        --                             --
│    │    └─RMSNorm: 3-89                                    [8, 64, 768]              [8, 64, 768]              768                       6,144                       0.00%
│    │    └─MultiHeadLatentAttention: 3-90                   [8, 64, 768]              [8, 64, 768]              1,551,744                 12,413,952                  0.16%
│    │    └─RMSNorm: 3-91                                    [8, 64, 768]              [8, 64, 768]              768                       6,144                       0.00%
│    │    └─DeepSeekFFN: 3-92                                [8, 64, 768]              [8, 64, 768]              28,316,942                3,652,233,272               2.91%
│    └─DeepSeekBlock: 2-24                                   [8, 64, 768]              [8, 64, 768]              --                        --                             --
│    │    └─RMSNorm: 3-93                                    [8, 64, 768]              [8, 64, 768]              768                       6,144                       0.00%
│    │    └─MultiHeadLatentAttention: 3-94                   [8, 64, 768]              [8, 64, 768]              1,551,744                 12,413,952                  0.16%
│    │    └─RMSNorm: 3-95                                    [8, 64, 768]              [8, 64, 768]              768                       6,144                       0.00%
│    │    └─DeepSeekFFN: 3-96                                [8, 64, 768]              [8, 64, 768]              28,316,942                3,652,233,272               2.91%
│    └─DeepSeekBlock: 2-25                                   [8, 64, 768]              [8, 64, 768]              --                        --                             --
│    │    └─RMSNorm: 3-97                                    [8, 64, 768]              [8, 64, 768]              768                       6,144                       0.00%
│    │    └─MultiHeadLatentAttention: 3-98                   [8, 64, 768]              [8, 64, 768]              1,551,744                 12,413,952                  0.16%
│    │    └─RMSNorm: 3-99                                    [8, 64, 768]              [8, 64, 768]              768                       6,144                       0.00%
│    │    └─DeepSeekFFN: 3-100                               [8, 64, 768]              [8, 64, 768]              28,316,942                3,652,233,272               2.91%
│    └─DeepSeekBlock: 2-26                                   [8, 64, 768]              [8, 64, 768]              --                        --                             --
│    │    └─RMSNorm: 3-101                                   [8, 64, 768]              [8, 64, 768]              768                       6,144                       0.00%
│    │    └─MultiHeadLatentAttention: 3-102                  [8, 64, 768]              [8, 64, 768]              1,551,744                 12,413,952                  0.16%
│    │    └─RMSNorm: 3-103                                   [8, 64, 768]              [8, 64, 768]              768                       6,144                       0.00%
│    │    └─DeepSeekFFN: 3-104                               [8, 64, 768]              [8, 64, 768]              28,316,942                3,652,233,272               2.91%
│    └─DeepSeekBlock: 2-27                                   [8, 64, 768]              [8, 64, 768]              --                        --                             --
│    │    └─RMSNorm: 3-105                                   [8, 64, 768]              [8, 64, 768]              768                       6,144                       0.00%
│    │    └─MultiHeadLatentAttention: 3-106                  [8, 64, 768]              [8, 64, 768]              1,551,744                 12,413,952                  0.16%
│    │    └─RMSNorm: 3-107                                   [8, 64, 768]              [8, 64, 768]              768                       6,144                       0.00%
│    │    └─DeepSeekFFN: 3-108                               [8, 64, 768]              [8, 64, 768]              28,316,942                3,652,233,272               2.91%
│    └─DeepSeekBlock: 2-28                                   [8, 64, 768]              [8, 64, 768]              --                        --                             --
│    │    └─RMSNorm: 3-109                                   [8, 64, 768]              [8, 64, 768]              768                       6,144                       0.00%
│    │    └─MultiHeadLatentAttention: 3-110                  [8, 64, 768]              [8, 64, 768]              1,551,744                 12,413,952                  0.16%
│    │    └─RMSNorm: 3-111                                   [8, 64, 768]              [8, 64, 768]              768                       6,144                       0.00%
│    │    └─DeepSeekFFN: 3-112                               [8, 64, 768]              [8, 64, 768]              28,316,942                3,652,233,272               2.91%
│    └─DeepSeekBlock: 2-29                                   [8, 64, 768]              [8, 64, 768]              --                        --                             --
│    │    └─RMSNorm: 3-113                                   [8, 64, 768]              [8, 64, 768]              768                       6,144                       0.00%
│    │    └─MultiHeadLatentAttention: 3-114                  [8, 64, 768]              [8, 64, 768]              1,551,744                 12,413,952                  0.16%
│    │    └─RMSNorm: 3-115                                   [8, 64, 768]              [8, 64, 768]              768                       6,144                       0.00%
│    │    └─DeepSeekFFN: 3-116                               [8, 64, 768]              [8, 64, 768]              28,316,942                3,652,233,272               2.91%
│    └─DeepSeekBlock: 2-30                                   [8, 64, 768]              [8, 64, 768]              --                        --                             --
│    │    └─RMSNorm: 3-117                                   [8, 64, 768]              [8, 64, 768]              768                       6,144                       0.00%
│    │    └─MultiHeadLatentAttention: 3-118                  [8, 64, 768]              [8, 64, 768]              1,551,744                 12,413,952                  0.16%
│    │    └─RMSNorm: 3-119                                   [8, 64, 768]              [8, 64, 768]              768                       6,144                       0.00%
│    │    └─DeepSeekFFN: 3-120                               [8, 64, 768]              [8, 64, 768]              28,316,942                3,652,233,272               2.91%
├─RMSNorm: 1-3                                               [8, 64, 768]              [8, 64, 768]              768                       6,144                       0.00%
├─Linear: 1-4                                                [8, 64, 768]              [8, 64, 49152]            37,797,888                302,383,104                 3.89%
=========================================================================================================================================================================================
Total params: 971,654,052
Trainable params: 971,654,052
Non-trainable params: 0
Total mult-adds (G): 110.54
=========================================================================================================================================================================================
…
